m13_model.pt (torch, 152220 bytes, 6 tensors)

fc.0.weight f4 [128, 29]
0.014517874 -0.11447319 -0.08420928 -0.121625505 -0.14529806 0.08727974 0.06765917 -0.15128803
0.094276965 -0.17681123 -0.17648864 0.011334409 -0.12853783 0.08784325 -0.089355044 0.138968
0.08770573 -0.1262481 0.13415834 0.027150618 -0.036639187 -0.12467221 0.08606446 -0.06109996
-0.057148423 -0.027010426 0.038520932 -0.17864591 -0.12856106 0.18562992 0.12905113 0.07911923
-0.010725076 0.040753476 -0.15263644 0.034401488 -0.09335909 -0.13340908 -0.047709662 0.16639876
-0.03402025 0.14890671 -0.026495041 0.13317357 -0.12428674 -0.067051455 -0.13837318 0.16420749
0.019584877 -0.14969078 0.11456402 0.09444241 0.07257226 -0.13737616 0.10720173 0.16682397
-0.1542526 -0.1602568 -0.113888234 0.061134845 0.12365152 -0.19976243 -0.16742332 0.026296066
-0.14303876 -0.21043763 0.15370117 -0.08614658 -0.01661137 0.03322119 0.035849173 0.13020514
-0.033385415 0.09148787 0.047746446 -0.13517633 -0.08775467 -0.12135168 0.08233956 -0.08940487
0.08796771 -0.017648906 0.15574935 -0.020254474 -0.16202176 0.15127252 0.043946017 0.07808266
-0.09753289 0.11699845 0.068243615 0.0710713 0.071978904 0.05929996 0.15178472 0.17622164
-0.10373562 -0.071093306 -0.09876397 0.09845518 -0.04511525 0.014618391 -0.023585249 0.20593464
-0.013713891 0.1391202 0.07698514 -0.09942483 0.054518696 -0.01980835 0.080655806 -0.12222279
0.020915078 0.06696965 0.06321863 0.07814252 0.055121157 -0.1079035 0.14108694 0.16851458
-0.09954331 0.124182865 0.014744769 -0.07745577 0.047536246 -0.123245835 -0.04053828 0.0715493
-0.11423118 0.15671664 -0.12600313 0.032261234 -0.1395257 -0.1551527 -0.19011948 -0.0041921646
-0.10197113 -0.10723515 -0.058836203 0.17099676 0.15309186 0.008039573 -0.15010987 0.07760423
-0.10767353 -0.20495965 0.0051440587 -0.14858334 -0.20104614 -0.020872962 0.046201617 -0.00889196
-0.13728888 0.115591615 0.06407569 0.030981705 0.13097392 0.05915691 -0.0043011773 -0.010541093
0.06882697 0.12294097 -0.008033834 -0.09353695 0.02822072 -0.11300135 0.01680617 0.1679053
-0.180809 -0.09464917 -0.16141938 0.07312657 0.055628177 -0.14846045 0.052787974 0.002461947
-0.031140093 0.04287248 -0.19528705 0.029115712 0.15299273 0.119206734 0.021160426 0.14862648
0.20621213 -0.18257855 0.11614261 0.09426599 -0.04629245 -0.06323898 -0.20713669 -0.108454466
0.02935676 -0.14189619 -0.14145765 -0.130277 -0.14227772 -0.009235376 -0.12753929 0.15046261
0.12734962 -0.053367134 0.10026334 0.11810683 0.13689943 0.18921614 -0.018814888 0.043161973
-0.15028712 0.09257221 -0.17874807 -0.126918 -0.047818877 -0.05364587 0.04432001 -0.13613632
0.11508175 0.16865736 0.032354962 -0.13331392 -0.18091424 0.15024564 0.028583053 -0.12131875
-0.12700738 -0.09481029 0.07868481 0.10514537 0.090668514 -0.0055099484 -0.08165913 0.1544686
0.14345804 0.20783128 0.06371949 0.025737172 0.15468338 -0.024389086 -0.13578768 -0.0039043354
0.13302483 -0.09243227 0.006751698 -0.12578039 0.029345375 0.1517676 -0.2054265 0.0616355
-0.02445167 0.19222389 0.00391704 0.057361566 0.09576254 -0.05792476 0.022741212 0.095799
00000000: 61dc 6d3c eb70 eabd ea75 acbd cb16 f9bd
00000010: 04c9 14be b8bf b23d e490 8a3d 40eb 1abe
00000020: 4814 c13d 010e 35be 70b9 34be f5b3 393c
00000030: 6c9f 03be 29e7 b33d c7ff b6bd a14d 0e3e
00000040: 109f b33d 2f47 01be ce60 093e f96a de3c
00000050: f912 16bd 2554 ffbd 9042 b03d f443 7abd
00000060: 7714 6abd f844 ddbc 20c8 1d3d f4ee 36be
00000070: 83a5 03be c515 3e3e fb25 043e 4309 a23d
00000080: 3bb8 2fbc 1eed 263d ba4c 1cbe 93e8 0c3d
00000090: 0d33 bfbd 649c 08be 356b 43bd 7064 2a3e
000000a0: d158 0bbd 007b 183e 210c d9bc a75e 083e
000000b0: 0c8a febd 4652 89bd b3b1 0dbe 0226 283e
000000c0: 7770 a03c 8a48 19be 8aa0 ea3d 066b c13d
000000d0: c4a0 943d 56ac 0cbe 958c db3d e7d3 2a3e
000000e0: 65f4 1dbe 5c1a 24be 3c3e e9bd 8868 7a3d
000000f0: 023d fd3d 868e 4cbe 0571 2bbe d96a d73c
00000100: c178 12be f67c 57be d763 1d3e 9e6d b0bd
00000110: 9114 88bc f112 083d 95d6 123d 7f54 053e
00000120: 25bf 08bd fe5d bb3d c791 433d aa6b 0abe
00000130: b8b8 b3bd 3b87 f8bd a5a1 a83d e719 b7bd
00000140: 6a28 b43d 7094 90bc c27c 1f3e b6ec a5bc
00000150: 08e9 25be 2fe7 1a3e bd00 343d cde9 9f3d
00000160: 53bf c7bd e29c ef3d 4fc3 8b3d d48d 913d
00000170: ad69 933d 84e4 723d 746d 1b3e 7273 343e
00000180: 5773 d4bd 5e99 91bd c444 cabd dfa2 c93d
00000190: c5ca 38bd fa81 6f3c da35 c1bc 88e0 523e
000001a0: 3ab0 60bc 8775 0e3e 63aa 9d3d 3f9f cbbd
000001b0: ff4e 5f3d 1f45 a2bc df2e a53d f14f fabd
000001c0: 1956 ab3c 6227 893d c578 813d 2f09 a03d
000001d0: b9c6 613d 83fc dcbd 1879 103e 168f 2c3e
000001e0: 5ddd cbbd 9653 fe3d 0b94 713c 21a1 9ebd
000001f0: 5eb5 423d 5068 fcbd 780b 26bd 7088 923d
00000200: 09f2 e9bd 547a 203e f706 01be 5b24 043d
00000210: d3df 0ebe 59e0 1ebe aeae 42be 6d5e 89bb
00000220: 3dd6 d0bd 1a9e dbbd 3bfe 70bd c619 2f3e
00000230: 1dc4 1c3e 6ab8 033c 67b6 19be f7ee 9e3d
00000240: f183 dcbd f1e0 51be 7e8f a83b 3b26 18be
00000250: 0adf 4dbe c6fd aabc e83d 3d3d 95af 11bc
00000260: 7595 0cbe 4cbb ec3d 1e3a 833d 58cd fd3c
00000270: 071e 063e 844e 723d e4f0 8cbb 8cb4 2cbc
00000280: 28f5 8c3d 7ac8 fb3d 58a0 03bc 4d90 bfbd
00000290: 242f e73c 406d e7bd 18ad 893c 5eef 2b3e
000002a0: ff25 39be 6dd7 c1bd 1f4b 25be 62c3 953d
000002b0: 5fda 633d 0406 18be 3438 583d 9e58 213b
000002c0: 8219 ffbc 0e9b 2f3d 54f9 47be 1384 ee3c
000002d0: 20aa 1c3e a922 f43d a158 ad3c 8a31 183e
000002e0: 4629 533e dff5 3abe 2ddc ed3d 870e c13d
000002f0: 279d 3dbd 7083 81bd a41b 54be 601d debd
00000300: 977d f03c 3c4d 11be 46da 10be 5567 05be
00000310: 40b1 11be f94f 17bc a999 02be df12 1a3e
00000320: f067 023e 7f97 5abd de56 cd3d fee1 f13d
00000330: 5d2f 0c3e e0c1 413e ae21 9abc 9cca 303d
00000340: dee4 19be 8096 bd3d bc09 37be cbf6 01be
00000350: badd 43bd c6bb 5bbd e688 353d 5267 0bbe
00000360: fbaf eb3d 84b4 2c3e a386 043d 7283 08be
00000370: 9541 39be fed9 193e 0227 ea3c f775 f8bd
00000380: 390e 02be e62b c2bd 8025 a13d 7556 d73d
00000390: 6ab0 b93d cc8c b4bb e73c a7bd 042d 1e3e
000003a0: aae6 123e b9d1 543e 5d7f 823d c3d6 d23c
000003b0: 5265 1e3e 9fcb c7bc ed0b 0bbe e1df 7fbb
000003c0: a937 083e 214d bdbd 593d dd3b 93cc 00be
000003d0: b665 f03c f768 1b3e 535b 52be 8275 7c3d
000003e0: de4e c8bc 57d6 443e 835a 803b f6f3 6a3d
000003f0: 271f c43d 8342 6dbd c74b ba3c 4432 c43d

fc.0.bias f4 [128]
-0.054621883 -0.029837182 -0.19802065 0.10623034 -0.1362165 -0.18473637 -0.16843913 -0.00930092
0.010169866 -0.13812184 0.13542208 0.037638057 -0.055286027 -0.15586883 -0.15365222 -0.16863137
0.1851169 0.10618873 -0.09490011 -0.16451156 -0.053439673 0.12511276 -0.14531192 -0.03689389
0.018501353 0.14160961 -0.02133642 0.024056029 0.12810127 -0.1557324 -0.120699465 0.04758543
0.04744608 0.14543726 -0.052553263 -0.10882297 -0.13995759 -0.13467221 -0.05161144 0.11361087
-0.0020838582 -0.20563336 0.13644964 -0.13751003 0.16180451 0.07014951 -0.024316479 -0.062781736
-0.021009449 -0.14950891 0.07323796 0.076769315 -0.027760927 -0.156923 0.0868432 0.083728306
0.19164339 -0.14438458 0.21417035 0.04774787 -0.011029698 0.07671116 -0.09221465 0.17794363
0.033194453 0.006626873 0.014574342 -0.1582564 -0.049357574 0.109515 -0.1538082 -0.10359657
0.025286227 -0.086314306 0.05481106 0.0968294 -0.10169764 0.11769696 -0.21068925 -0.013232003
0.0028106296 -0.16909815 0.17659785 -0.07140799 0.029090714 0.09170712 -0.1978151 0.108077966
0.010404206 0.16227964 -0.0025658256 0.015836876 0.16459869 -0.11364549 0.04775132 0.0022748096
0.18660381 0.15329967 0.12654111 -0.13193856 -0.025165163 0.0039227777 0.015094406 0.0068688127
-0.021645699 0.19439632 0.18110533 -0.09010523 -0.14731702 0.034601934 0.07522142 -0.03854182
-0.07483812 0.19360329 0.103578314 -0.030315025 0.15053804 -0.05393883 -0.13003054 0.11567679
0.033298153 -0.14913358 -0.086507745 0.20357743 0.10572784 -0.10051783 -0.114856705 0.009368366
00000000: 32bb 5fbd 1b6d f4bc edc5 4abe 4b8f d93d
00000010: 577c 0bbe 882b 3dbe 4f7b 2cbe e362 18bc
00000020: 829f 263c d06f 0dbe 16ac 0a3e 5d2a 1a3d
00000030: 9a73 62bd 149c 1fbe 0257 1dbe b4ad 2cbe
00000040: 498f 3d3e 7a79 d93d fd5a c2bd b875 28be
00000050: 8fe3 5abd 8f1d 003e a6cc 14be 0c1e 17bd
00000060: 2690 973c 1c02 113e b7c9 aebc 2611 c53c
00000070: fb2c 033e 5078 1fbe 4831 f7bd f1e8 423d
00000080: d256 423d 81ed 143e 1742 57bd 94de debd
00000090: 0b51 0fbe 83e7 09be 8466 53bd d1ac e83d
000000a0: 5791 08bb 8d91 52be 74b9 0b3e 6ecf 0cbe
000000b0: 15b0 253e 8caa 8f3d 5a33 c7bc b693 80bd
000000c0: 021c acbc dd18 19be c9fd 953d 3b39 9d3d
000000d0: e26a e3bc 6cb0 20be d9da b13d bf79 ab3d
000000e0: 2a3e 443e 8dd9 13be 794f 5b3e 4593 433d
000000f0: e8b5 34bc be1a 9d3d 09db bcbd db36 363e
00000100: e8f6 073d 3d26 d93b 39c9 6e3c f70d 22be
00000110: 2b2b 4abd 6649 e03d e67f 1dbe 702a d4bd
00000120: 1025 cf3c 8ec5 b0bd 9081 603d 7e4e c63d
00000130: da46 d0bd 1b0b f13d ecbe 57be 0bcb 58bc
00000140: 8a32 383b 1128 2dbe 11d6 343e 5a3e 92bd
00000150: a64f ee3c f1d0 bb3d 0b90 4abe fb57 dd3d
00000160: 6776 2a3c a22c 263e 6927 28bb 56bc 813c
00000170: 8f8c 283e f7be e8bd e396 433d f914 153b
00000180: 1215 3f3e 97fa 1c3e fe93 013e e71a 07be
00000190: 2c27 cebc a58a 803b 874e 773c c713 e13b
000001a0: 5252 b1bc d40f 473e ad73 393e 1789 b8bd
000001b0: 46da 16be c2ba 0d3d b00d 9a3d 07de 1dbd
000001c0: ba44 99bd f13f 463e de20 d43d 3757 f8bc
000001d0: a526 1a3e f6ee 5cbd ba26 05be f4e7 ec3d
000001e0: a563 083d 79b6 18be f92a b1bd 9a76 503e
000001f0: d687 d83d 4bdc cdbd fe39 ebbd c67d 193c

fc.2.weight f4 [256, 128]
0.028875353 -0.025454104 0.0368779 -0.035806414 0.0020815064 0.002530581 0.04778304 0.087555505
-0.015404662 -0.012818352 0.03224453 -0.040862422 0.012051849 0.056579985 0.06139505 0.034422554
-0.035445888 0.01984499 -0.06957687 -0.03794252 -0.019424144 -0.049259633 -0.040755063 -0.031930767
-0.04504166 -0.025068745 -0.041633815 0.06691441 -0.025616443 0.02048636 0.010721115 -0.0529329
0.024743307 0.077749625 -0.030270783 -0.011270489 -0.015412659 0.022898678 0.060286537 -0.034457408
0.066622205 -0.08593888 0.03309888 -0.011873378 0.07587967 -0.04295829 -0.07783908 0.053642232
-0.017165884 -0.024362544 -0.006307539 0.07797571 0.07477063 -0.017113011 -0.048723537 0.0861189
-0.08412616 0.02168292 -0.06402329 0.08783581 0.06976634 0.03747528 0.04759967 0.05370459
0.002563287 -0.034573503 0.0067763384 -0.059894834 -0.064947344 0.004454216 -0.032756034 -0.07426184
-0.031135816 0.062226016 -0.08063119 0.06668448 -0.08410453 0.030527046 0.078386955 -0.037789695
0.03433813 0.0034929938 -0.08301277 -0.03283858 -0.029291723 0.08835266 -0.04971856 -0.05362492
-0.015937567 0.06029649 0.05780339 -0.065793864 -0.050670184 -0.029078016 0.05648213 -0.021354448
0.017671203 -0.019982126 -0.049621467 -0.083756156 -0.014608983 0.039657917 -0.019855518 0.049068626
-0.08532328 0.06797588 0.053528287 0.05869585 -0.012273637 -0.0647005 -0.080071785 -0.06276033
0.06909242 -0.0026662834 0.08681102 0.02440587 0.017489772 -0.010001816 -0.01941463 0.020342682
0.0017606003 0.07190525 -0.025660222 0.01313851 0.048522234 -0.079930246 -0.05629423 0.0064787925
0.008199975 0.08317074 0.048123755 -0.02459101 -0.081009686 0.024741622 0.08104591 -0.06785034
0.009778849 0.07558449 -0.030754587 0.036293007 -0.06502674 -0.02006741 0.00920818 -0.08723171
0.0016927017 0.030931793 0.05392983 0.0656096 -0.0841272 0.08604112 -0.0588076 -0.07963621
0.06741938 0.079541385 0.036441725 0.022651708 0.055406604 -0.06542164 -0.0591403 0.039935455
-0.067940906 0.070504576 0.017540464 0.025888037 0.033618644 0.04147413 0.059100576 0.030684527
0.017326463 0.070879504 0.07259216 0.008996371 -0.0007004279 0.010589069 0.08009096 0.029671866
0.039819974 -0.06932737 0.0024557703 0.049985394 -0.06497991 -0.012646414 0.04230023 -0.010078976
-0.059598014 0.031130252 -0.06876753 -0.057983357 -0.08449024 -0.08451701 0.05708764 0.06067849
0.0033127107 0.029041264 0.009577354 0.03449607 0.002193301 0.033007134 0.06999786 -0.030524528
-0.03126901 -0.043207083 -0.037094474 -0.05294137 0.052252166 0.0021460752 0.001509816 0.006357578
-0.0090272855 0.00405184 -0.06351459 -0.04978746 0.042950694 -0.0033050294 -0.07818555 -0.028730031
0.033135325 -0.044939656 0.04196603 -0.05166409 -0.0676162 -0.08288679 0.07186998 -0.084752135
-0.053547982 0.047997568 -0.031143297 -0.049724136 -0.06930008 -0.04728106 0.014786463 -0.06382617
0.008357963 -0.056795362 -0.035335727 -0.06410311 -0.05882287 -0.041727465 -0.059044223 0.025498874
-0.08016169 -0.05825801 -0.029365573 0.04277221 -0.0389659 -0.040476896 -0.032365166 0.042517204
0.059741933 -0.07669015 0.018692475 -0.04113368 -0.036602862 -0.060087804 0.07020579 -0.07042495
00000000: 018c ec3c 2085 d0bc 480d 173d bfa9 12bd
00000010: e269 083b 1bd8 253b 26b8 433d 4d50 b33d
00000020: d663 7cbc 1104 52bc d712 043d 5b5f 27bd
00000030: 1e75 453c 6ac0 673d 6079 7b3d aafe 0c3d
00000040: b52f 11bd f691 a23c 517e 8ebd 9e69 1bbd
00000050: 621f 9fbc 78c4 49bd c8ee 26bd d6c9 02bd
00000060: 9b7d 38bd f85c cdbc 3888 2abd 6c0a 893d
00000070: 93d9 d1bc 03d3 a73c 9ea7 2f3c 2bd0 58bd
00000080: 7ab2 ca3c 323b 9f3d 6ffa f7bc dba7 38bc
00000090: 6185 7cbc 0296 bb3c 04ef 763d 3623 0dbd
000000a0: 3971 883d b900 b0bd b192 073d 8f88 42bc
000000b0: cd66 9b3d 08f5 2fbd 186a 9fbd f5b7 5b3d
000000c0: 789f 8cbc f593 c7bc 79af cebb bbb1 9f3d
000000d0: 5821 993d 9630 8cbc 5592 47bd 1b5f b03d
000000e0: 564a acbd 61a0 b13c a51e 83bd 43e3 b33d
000000f0: a8e1 8e3d ae7f 193d dff7 423d 58f9 5b3d
00000100: d2fc 273b f29c 0dbd 0c0c de3b 4954 75bd
00000110: 1d03 85bd acf4 913b 312b 06bd 9716 98bd
00000120: 8a10 ffbc b5e0 7e3d f721 a5bd df91 883d
00000130: ff3e acbd db13 fa3c 5789 a03d 5ec9 1abd
00000140: 24a6 0c3d b6ea 643b 9902 aabd bf81 06bd
00000150: 32f5 efbc 3df2 b43d b0a5 4bbd cea5 5bbd
00000160: 808f 82bc 74f9 763d 3fc3 6c3d efbe 86bd
00000170: 8a8b 4fbd 0535 eebc ce59 673d 86ef aebc
00000180: 33c3 903c 8eb1 a3bc e13f 4bbd 5988 abbd
00000190: 845a 6fbc 5770 223d 0aa8 a2bc 2ffc 483d
000001a0: f9bd aebd f036 8b3d 7a40 5b3d 0f6b 703d
000001b0: 5d17 49bc b281 84bd adfc a3bd 7d88 80bd
000001c0: 5480 8d3d d0bc 2ebb fac9 b13d d2ee c73c
000001d0: b646 8f3c a8de 23bc 6e0b 9fbc b2a5 a63c
000001e0: f1c3 e63a 0f43 933d 6335 d2bc e842 573c
000001f0: 40bf 463d 78b2 a3bd c794 66bd 0d4c d43b
00000200: 3059 063c 6c55 aa3d 6a1d 453d 1673 c9bc
00000210: 68e8 a5bd f1ae ca3c 66fb a53d 1ef5 8abd
00000220: 7737 203c 0bcc 9a3d 0bf1 fbbc faa7 143d
00000230: bd2c 85bd 6964 a4bc e8dd 163c 8aa6 b2bd
00000240: a5dd dd3a ac64 fd3c 87e5 5c3d 535e 863d
00000250: e24a acbd 5436 b03d 3de0 70bd 4f18 a3bd
00000260: 2c13 8a3d 98e6 a23d eb43 153d 1390 b93c
00000270: 09f2 623d c8fb 85bd 193d 72bd 5c93 233d
00000280: 9a24 8bbd b464 903d 05b1 8f3c 2613 d43c
00000290: b4b3 093d c7e0 293d 7213 723d 1e5e fb3c
000002a0: 3af0 8d3c 4629 913d 33ab 943d 8465 133c
000002b0: ec9c 37ba c67d 2d3c bb06 a43d 6a12 f33c
000002c0: 451a 233d 82fb 8dbd fdf0 203b 7cbd 4c3d
000002d0: 3014 85bd e832 4fbc 0243 2d3d 4a22 25bc
000002e0: 0c1d 74bd df04 ff3c fed5 8cbd f57f 6dbd
000002f0: 3809 adbd 4117 adbd bbd4 693d 028a 783d
00000300: 101a 593b f2e7 ed3c 56ea 1c3c c04b 0d3d
00000310: 7cbd 0f3b 7d32 073d 0a5b 8f3d 930e fabc
00000320: ef13 00bd e9f9 30bd 60f0 17bd 0dd9 58bd
00000330: 5e06 563d 2ba5 0c3b 05e5 c53a 3b53 d03b
00000340: 2ee7 13bc 4cc5 843b f013 82bd f0ed 4bbd
00000350: 11ed 2f3d 3199 58bb bf1f a0bd 3e5b ebbc
00000360: e8b8 073d a512 38bd 92e4 2b3d ba9d 53bd
00000370: 5d7a 8abd 8dc0 a9bd 9130 933d 8792 adbd
00000380: 2155 5bbd 1999 443d 3a20 ffbc 89ab 4bbd
00000390: 33ed 8dbd c9a9 41bd ec42 723c 4cb7 82bd
000003a0: d6ef 083c 41a2 68bd 32bc 10bd 7e48 83bd
000003b0: 40f0 70bd 6bea 2abd 5bd8 71bd 04e3 d03c
000003c0: d02b a4bd f39f 6ebd 1290 f0bc ea31 2f3d
000003d0: b59a 1fbd 1acb 25bd 5691 04bd 8526 2e3d
000003e0: f5b3 743d ba0f 9dbd f620 993c ca7b 28bd
000003f0: e2ec 15bd a11e 76bd 0ec8 8f3d f53a 90bd

fc.2.bias f4 [256]
-0.081358455 0.052308388 0.003776818 -0.022422764 -0.050518177 -0.04362663 0.03233473 0.022049893
0.099791914 -0.043592777 0.006462662 0.057301823 -0.054994684 -0.0062217223 -0.05233489 -0.05720127
0.054322943 0.06776083 -0.010908268 0.049669508 0.006512023 -0.0694062 -0.048155103 0.09183829
-0.06037972 0.038120735 -0.024225632 0.01715522 0.05007229 -0.082007736 0.06498654 0.037695516
0.110212855 0.10269309 0.09535084 0.028609972 0.042807125 -0.07315597 -0.052688006 -0.022406539
0.06312668 0.044200268 -0.034353405 0.08617756 -0.053859804 -0.03226023 0.05871312 -0.030869959
-0.0460014 -0.08380911 -0.06923467 0.10671715 -0.05332126 0.047520302 -0.091172986 0.040690273
0.02386865 0.061859082 0.039922994 0.054652743 -0.03497784 0.019644706 -0.021991307 0.10934436
-0.05447914 0.0060133017 0.0826764 -0.052045226 0.04866732 -0.043230705 -0.043122854 -0.040556744
-0.038437244 -0.06788998 0.053973623 -0.07021542 -0.053698644 -0.038798418 0.014192193 -0.03175933
-0.005914309 0.05260515 -0.05409568 -0.05393738 -0.008132074 0.053813417 -0.05433273 0.00414116
-0.051679038 -0.07924567 0.08445461 0.0015895051 -0.053732432 0.0052628135 0.06289296 0.060725138
0.035986006 0.06030012 -0.10502649 -0.026830567 -0.023969356 -0.047971282 0.020082435 -0.06632486
-0.05387996 -0.013721487 -0.04391176 -0.0041004247 -0.034828827 -0.11632885 -0.00078319217 0.026650127
0.05262155 -0.036877554 -0.07226995 -0.030309932 -0.002881991 0.03240704 0.07453453 0.019085245
-0.07480821 0.088742256 -0.007334259 -0.08530776 0.008797057 0.07067458 0.03012998 0.011068943
0.07073542 0.03090385 0.0006168086 -0.049751893 -0.061481517 0.056655116 0.057027005 -0.115045406
0.01884761 0.02935722 0.0011531519 -0.016441729 0.10952188 -0.029083338 -0.08893614 0.048684776
-0.05289185 -0.025569811 0.09825144 -0.037719406 0.09414036 0.014467863 -0.018146705 -0.044113982
-0.05334211 0.056592606 0.018246975 0.08503638 -0.0072925123 -0.052736506 -0.039887883 0.005194323
0.0585642 0.11066935 0.044772495 0.028609185 -0.055061128 2.9194225e-06 -0.04725468 -0.03869964
0.0397789 0.062233623 -0.042652275 -0.053707816 -0.04378039 -0.031665463 0.08699175 0.049296357
-0.0011223811 -0.08811524 -0.008007754 -0.0693962 0.028703917 0.04957868 -0.0069882106 -0.054742564
0.028077262 0.0040334878 -0.11118325 0.026948337 -0.10065309 0.020177 0.03730494 -0.0057308124
-0.04773512 0.10286088 0.07046368 0.02049303 -0.018246982 -0.05180597 0.052718014 0.009754961
0.010922387 0.030226002 0.036279175 -0.06015155 0.1116141 0.029965851 0.052219287 -0.023652561
0.014924365 0.050611533 0.09977365 -0.053654063 -0.036069162 -0.05748272 -0.101810895 -0.092626706
0.05513657 0.019691713 -0.017728133 -0.116261035 0.030428177 0.080132 -0.07627538 0.046380837
0.07518263 -0.037955537 -0.023984974 0.009091036 -0.05236699 0.039861843 0.028591147 -0.021337673
-0.050672155 0.014909366 0.021689977 0.01511336 0.011221873 0.05593594 0.043354154 -0.05975797
-0.07460759 0.05112049 -0.004769379 0.040210746 -0.062105447 -0.008061306 -0.05691649 -0.037474576
-0.0027916813 0.08194439 -0.056379616 0.067287475 0.07932727 -0.0029028023 -0.015598864 -0.0595251
00000000: 439f a6bd 5241 563d 7e84 773b f2af b7bc
00000010: 26ec 4ebd d6b1 32bd 6c71 043d faa1 b43c
00000020: b45f cc3d 578e 32bd bdc4 d33b 51b5 6a3d
00000030: 1b42 61bd 97df cbbb 1c5d 56bd e14b 6abd
00000040: bc81 5e3d 31c6 8a3d 98b8 32bc 4172 4b3d
00000050: cf62 d53b d624 8ebd 493e 45bd b715 bc3d
00000060: ba50 77bd 7d24 1c3d d574 c6bc 1b89 8c3c
00000070: 9a18 4d3d acf3 a7bd aa17 853d 9d66 1a3d
00000080: 47b7 e13d c150 d23d 4d47 c33d 765f ea3c
00000090: 8656 2f3d ccd2 95bd 61cf 57bd eb8d b7bc
000000a0: 9048 813d 570b 353d 28b6 0cbd dc7d b03d
000000b0: 199c 5cbd 4e23 04bd 2b7d 703d ffe2 fcbc
000000c0: f76b 3cbd 1ca4 abbd e8ca 8dbd 858e da3d
000000d0: 6567 5abd a6a4 423d e7b8 babd d8aa 263d
000000e0: 3088 c33c f35f 7d3d 4b86 233d 8edb 5f3d
000000f0: ec44 0fbd efed a03c 1d27 b4bc f0ef df3d
00000100: 8525 5fbd 3b0b c53b 3f52 a93d 602d 55bd
00000110: 6257 473d ae12 31bd 97a1 30bd d41e 26bd
00000120: 5f70 1dbd e709 8bbd 7213 5d3d 1acd 8fbd
00000130: 1cf3 5bbd 17eb 1ebd 5f86 683c 1216 02bd
00000140: d2cc c1bb 7f78 573d 6f93 5dbd 71ed 5cbd
00000150: 643c 05bc 756b 5c3d ff8b 5ebd 91b2 873b
00000160: 66ad 53bd 8e4b a2bd 8af6 ac3d f156 d03a
00000170: 8a16 5cbd ae73 ac3b 06ce 803d ecba 783d
00000180: 1066 133d 42fd 763d 2118 d7bd c7cb dbbc
00000190: 625b c4bc 897d 44bd eb83 a43c 54d5 87bd
000001a0: 3cb1 5cbd 16d0 60bc d1dc 33bd db5c 86bb
000001b0: aca8 0ebd d23d eebd 234f 4dba 5e51 da3c
000001c0: b289 573d eb0c 17bd 4402 94bd 894c f8bc
000001d0: c9df 3cbb 3fbd 043d 8fa5 983d a958 9c3c
000001e0: 0c35 99bd 80be b53d 3954 f0bb d6b5 aebd
000001f0: 8821 103c d6bd 903d 26d3 f63c 835a 353c
00000200: bbdd 903d 122a fd3c 53b1 213a a4c8 4bbd
00000210: 0bd4 7bbd 320f 683d 2695 693d ed9c ebbd
00000220: 4e66 9a3c 8d7e f03c 5b25 973a ceb0 86bc
00000230: 024d e03d 2e40 eebc 2724 b6bd b069 473d
00000240: 20a5 58bd c877 d1bc 0d38 c93d aa7f 1abd
00000250: a9cc c03d 9e0a 6d3c 66a8 94bc ddb0 34bd
00000260: 427d 5abd a6cd 673d ae7a 953c 8e27 ae3d
00000270: 07f6 eebb 3c02 58bd 7a61 23bd 2435 aa3b
00000280: 04e1 6f3d 9da6 e23d 5d63 373d cf5d ea3c
00000290: c787 61bd 4ceb 4336 208e 41bd 8483 1ebd
000002a0: 33ef 223d afe8 7e3d 27b4 2ebd bafc 5bbd
000002b0: 1153 33bd a5b3 01bd bb28 b23d faea 493d
000002c0: dc1c 93ba c375 b4bd f432 03bc 981f 8ebd
000002d0: 7a24 eb3c 0413 4b3d 5cfd e4bb bd39 60bd
000002e0: 4902 e63c 592b 843b 0bb4 e3bd c2c2 dc3c
000002f0: 3523 cebd 3c4a a53c 11cd 183d 8ac9 bbbb
00000300: e785 43bd baa8 d23d 434f 903d 00e1 a73c
00000310: b27a 95bc 7f32 54bd d8ee 573d 46d3 1f3c
00000320: d0f3 323c 859c f73c 7999 143d 7961 76bd
00000330: ef95 e43d f27a f53c e4e3 553d 04c3 c1bc
00000340: 5385 743c 0a4e 4f3d 2156 cc3d 5dc4 5bbd
00000350: 42bd 13bd 0073 6bbd 3b82 d0bd 12b3 bdbd
00000360: e2d6 613d 8450 a13c 973a 91bc 441a eebd
00000370: 8344 f93c 3f1c a43d 4436 9cbd d5f9 3d3d
00000380: 5af9 993d 4477 1bbd 237c c4bc 92f2 143c
00000390: c57e 56bd 2c46 233d fb37 ea3c 58cc aebc
000003a0: 9b8d 4fbd 6a46 743c 2eaf b13c 079e 773c
000003b0: f2db 373c 161d 653d 2094 313d c6c4 74bd
000003c0: ddcb 98bd b863 513d 7348 9cbb 06b4 243d
000003d0: 4862 7ebd 9113 04bc 4421 69bd f17e 19bd
000003e0: a4f4 36bb 76d2 a73d 50ee 66bd 04ce 893d
000003f0: 5676 a23d f13c 3ebb 6192 7fbc 97d0 73bd

fc.4.weight f4 [2, 256]
-0.0071486607 -0.031915806 -0.08797679 0.02844466 -0.033829518 -0.027741062 -0.009044061 0.058109395
-0.06570963 -0.043412182 0.01879952 0.045635715 0.0054590586 -0.040613096 0.04720694 0.003273929
0.016486261 -0.05447612 0.020832919 -0.07598564 -0.04931237 -0.029644802 -0.016574435 -0.02608742
-0.013625279 -0.07047924 -0.08395078 -0.04721892 0.012788544 -0.021110697 0.011807925 0.019783773
-0.06111833 -0.08158392 -0.04019817 -0.079476856 -0.031024981 -0.040293798 -0.011827752 0.018754743
0.013968773 -0.059343953 0.027082993 0.033877723 -0.041445218 0.045473866 0.04309357 -0.0036788897
0.007262808 0.013203582 0.020823712 -0.077869825 -0.0056041554 -0.019009247 -0.021124087 0.03595391
-0.024664914 -0.026641866 -0.04420082 -0.026964108 0.05149944 -0.02693949 -0.0374258 -0.015678706
-0.032873422 0.03615868 -0.04887472 -0.008647867 0.0052936715 0.054803535 -0.0071957633 -0.0257366
-0.008330451 -0.025400497 -0.075276256 0.009771572 0.0053597987 0.055772156 0.018746488 -0.04934108
0.05666004 -0.005332897 -0.04048429 -0.085642375 -0.002230625 -0.04660892 -0.028253559 -0.028613366
-0.08734181 -0.04821779 -0.064887956 -0.013771728 -0.0380926 0.022875704 -0.05904486 0.056431778
-0.0039085634 -0.043276075 -0.012390233 0.05242821 -0.026162779 -0.018027166 -0.07730097 0.00624607
-0.06057944 -0.029154498 0.0006987864 0.023860086 -0.030404247 -0.021873865 0.012723413 -0.062270425
0.004069716 -0.031918496 -0.04154826 -0.046864644 0.030066289 -0.087012924 -0.058652237 -0.012939132
0.0064558866 -0.020354798 -0.06861162 -0.08252924 0.02834104 -0.020107768 -0.036482207 -0.06927324
-0.054740667 0.037578486 -0.048766837 -0.072945066 0.0023241485 -0.04846113 0.020846054 -0.0105417585
-0.06754468 -0.005789548 -0.09231733 -0.038040508 -0.0796916 0.038231015 0.031751882 -0.06305164
-0.0142624015 -0.051621106 -0.08021325 0.040896058 -0.085946016 -0.08851023 0.043755233 0.021089211
-0.08695506 -0.08252379 0.008066407 -0.06539131 -0.034122854 -0.06748615 -0.005056615 0.002833405
-0.09069478 -0.048763856 -0.018678226 0.017244637 0.009901658 -0.060396943 -0.07807771 -0.04639853
-0.04304806 0.02378977 -0.046611868 -0.036160283 -0.07144481 0.028215528 0.035884716 0.029275669
-0.00091855973 0.05880125 -0.027615607 0.025535734 0.024340542 0.0030441126 -0.042130955 -0.0098437
-0.032349043 -0.012874924 0.016090903 -9.402633e-05 0.0012391094 -0.021131964 -0.048112053 0.010817997
0.02684398 -0.053878166 0.058975495 0.0035572946 0.055910632 -0.03501679 -0.05488757 0.024528183
0.035113975 -0.040936552 0.0042209877 -0.008860126 -0.07411033 -0.045427117 -0.06263894 0.01387236
-0.06896839 -0.022197707 -0.07509122 0.0005440883 0.0033049784 0.010328923 -0.0018708707 0.003770387
-0.026842542 0.06070806 -0.022147156 0.009355427 -0.057373017 -0.018330123 0.032150596 -0.017520824
-0.07112961 0.00048437234 -0.026971487 0.011568951 -0.05910395 -0.026487257 -0.011316808 -0.01858308
0.041997604 0.025460903 -0.06854406 -0.045486744 -0.051855236 -0.018570097 -0.04542419 0.02028621
-0.018976934 0.018617721 -0.058512203 -0.079392225 -0.028070122 -0.018593809 0.002109704 0.01988072
-0.008525613 -0.07448541 0.029461898 0.008822955 0.0545146 -0.015514033 -0.008872166 -0.05959431
00000000: 503f eabb 26ba 02bd 2d2d b4bd c704 e93c
00000010: d290 0abd 3941 e3bc 8b2d 14bc 1e04 6e3d
00000020: c592 86bd f9d0 31bd 7301 9a3c 84ec 3a3d
00000030: e7e1 b23b eb59 26bd 105c 413d 6a8f 563b
00000040: 320e 873c 5a22 5fbd cca9 aa3c 5c9e 9bbd
00000050: c5fb 49bd a8d9 f2bc 1cc7 87bc 49b5 d5bc
00000060: 903c 5fbc 6b57 90bd 63ee abbd a068 41bd
00000070: 0b87 513c 57f0 acbc 0776 413c 9411 a23c
00000080: 3757 7abd 7815 a7bd d6a6 24bd c3c4 a2bd
00000090: 1a28 febc 1c0b 25bd 30c9 41bc 8ca3 993c
000000a0: 48dd 643c a512 73bd 27dd dd3c 5ec3 0a3d
000000b0: 76c2 29bd ce42 3a3d e282 303d 8719 71bb
000000c0: d9fc ed3b d653 583c 7d96 aa3c 377a 9fbd
000000d0: 10a3 b7bb 48b9 9bbc 6c0c adbc 6844 133d
000000e0: 130e cabc 0b40 dabc eb0b 35bd d5e3 dcbc
000000f0: 14f1 523d 35b0 dcbc cc4b 19bd a170 80bc
00000100: 48a6 06bd 201b 143d dc30 48bd c8af 0dbc
00000110: 8976 ad3b ac79 603d 70ca ebbb 90d5 d2bc
00000120: 727c 08bc b414 d0bc 702a 9abd f218 203c
00000130: 40a1 af3b 5871 643d 3c92 993c df19 4abd
00000140: 5c14 683d 95bf aebb dbd2 25bd 4565 afbd
00000150: ad2f 12bb ffe8 3ebd 0274 e7bc 9466 eabc
00000160: 43e0 b2bd 0480 45bd fae3 84bd d0a2 61bc
00000170: fc06 1cbd d465 bb3c 06d9 71bd 0225 673d
00000180: 6813 80bb 4142 31bd 6700 4bbc f6be 563d
00000190: 5353 d6bc b5ad 93bc f94f 9ebd d5ab cc3b
000001a0: 2622 78bd 6ad5 eebc c32e 373a 3a76 c33c
000001b0: 5412 f9bc d230 b3bc dd75 503c 460f 7fbd
000001c0: 415b 853b f8bc 02bd 822e 2abd 24f5 3fbd
000001d0: 944d f63c d533 b2bd 543d 70bd a7fe 53bc
000001e0: e78b d33b 1bbf a6bc 4084 8cbd 1705 a9bd
000001f0: 782b e83c 0cb9 a4bc 5e6e 15bd 21df 8dbd
00000200: c037 60bd e6eb 193d bcbf 47bd 3964 95bd
00000210: be50 183b 2e7f 46bd 58c5 aa3c 57b7 2cbc
00000220: dd54 8abd 40b6 bdbb de10 bdbd 5dd0 1bbd
00000230: 5935 a3bd 2098 1c3d 430e 023d 3821 81bd
00000240: d9ac 69bc a770 53bd d846 a4bd a082 273d
00000250: 7704 b0bd da44 b5bd b038 333d 48c3 ac3c
00000260: 7f15 b2bd 3c02 a9bd f728 043c e1eb 85bd
00000270: 68c4 0bbd 2e36 8abd f6b1 a5bb a6b0 393b
00000280: 2fbe b9bd 9cbc 47bd 1403 99bc a044 8d3c
00000290: 903a 223c c962 77bd 35e7 9fbd 630c 3ebd
000002a0: 2a53 30bd c4e2 c23c 16ec 3ebd ce1c 14bd
000002b0: a851 92bd 4024 e73c dafb 123d 87d3 ef3c
000002c0: 80cb 70ba 94d9 703d 203a e2bc 5130 d13c
000002d0: d165 c73c bc7f 473b 8291 2cbd 7847 21bc
000002e0: 6e80 04bd 58f1 52bc 12d1 833c 0030 c5b8
000002f0: 9d69 a23a f11c adbc 2511 45bd f83d 313c
00000300: e8e7 db3c 5aaf 5cbd 4a90 713d 8021 693b
00000310: 8c02 653d c46d 0fbd cad1 60bd 54ef c83c
00000320: acd3 0f3d 16ad 27bd 3650 8a3b 102a 11bc
00000330: 28c7 97bd c911 3abd d848 80bd e548 633c
00000340: 4d3f 8dbd f7d7 b5bc 6dc9 99bd 26a1 0e3a
00000350: 5698 583b a53a 293c 0138 f5ba 9918 773b
00000360: e4e4 dbbc 04a9 783d f46d b5bc 8147 193c
00000370: f8ff 6abd 0e29 96bc 58b0 033d d587 8fbc
00000380: 67ac 91bd 5bf3 fd39 4ff3 dcbc b38b 3d3c
00000390: fc16 72bd cefb d8bc 226a 39bc 8b3b 98bc
000003a0: ae05 2c3d 6293 d03c d460 8cbd 4f50 3abd
000003b0: 2866 54bd 5120 98bc b70e 3abd 442f a63c
000003c0: 8475 9bbc 3184 983c 7eaa 6fbd 6498 a2bd
000003d0: 50f3 e5bc 0b52 98bc f642 0a3b e4dc a23c
000003e0: 03af 0bbc ce8b 98bd 145a f13c 288e 103c
000003f0: b44a 5f3d 922e 7ebc 905c 11bc 2a19 74bd

fc.4.bias f4 [2]
-0.015520884 -0.027456535
00000000: 4e4b 7ebc 87ec e0bc
